D:\Python3.9.1\python.exe D:/Code/Python/NLP/7_LSTM/LSTMLM.py
print parameter ......
n_step: 5
n_hidden: 128
batch_size: 128
learn_rate: 0.0005
all_epoch: 5
emb_size: 256
save_checkpoint_epoch: 5
train_data: penn_small
The size of the dictionary is: 7615
generating train_batch ......
The number of the train batch is: 603

Train the LSTMLM……………………
TextLSTM(
  (C): Embedding(7615, 256)
  (LSTM): LSTM(
    (linear_if): Linear(in_features=256, out_features=128, bias=True)
    (linear_hf): Linear(in_features=128, out_features=128, bias=True)
    (sigmoid_f): Sigmoid()
    (linear_ii): Linear(in_features=256, out_features=128, bias=True)
    (linear_hi): Linear(in_features=128, out_features=128, bias=True)
    (sigmoid_i): Sigmoid()
    (linear_ig): Linear(in_features=256, out_features=128, bias=True)
    (linear_hg): Linear(in_features=128, out_features=128, bias=True)
    (tanh_g): Tanh()
    (linear_io): Linear(in_features=256, out_features=128, bias=True)
    (linear_ho): Linear(in_features=128, out_features=128, bias=True)
    (sigmoid_o): Sigmoid()
    (tanh_o): Tanh()
  )
  (W): Linear(in_features=128, out_features=7615, bias=False)
)
Epoch: 0001 Batch: 100 /603 loss = 6.525420 ppl = 682.266
Epoch: 0001 Batch: 200 /603 loss = 6.322384 ppl = 556.899
Epoch: 0001 Batch: 300 /603 loss = 6.491445 ppl = 659.475
Epoch: 0001 Batch: 400 /603 loss = 6.720014 ppl = 828.829
Epoch: 0001 Batch: 500 /603 loss = 6.209785 ppl = 497.594
Epoch: 0001 Batch: 600 /603 loss = 6.321392 ppl = 556.347
Epoch: 0001 Batch: 604 /603 loss = 5.790790 ppl = 327.271
…
